PlasticEnz/data/model/nn_model.pt (torch, 530520 bytes, 4 tensors)

fc1.weight f4 [128, 1024]
00000000: 0bf8 8c3d b2ec c23d 104e 28be 3e8e 98b9
00000010: daab 823c 3e04 053c 4393 cc3b 40d6 d7bd
00000020: 5819 e0bc d73b bebe 680f 16be 3f65 fe3d
00000030: 60fe e4bd ab37 953b 8e90 42bd 0ec6 e0bd
00000040: 032c 0cbc 8b99 f9bc 82e6 cbbd 6f2a d53c
00000050: 1fa3 86bd 440e 393e 4417 83bc a7ad 81bd
00000060: 4a41 1c3d 6686 85bb c9e2 debd 7a10 c83c
00000070: 422f ba3d 8f14 f93b ba4f e93d fef5 fcbd
00000080: 2ce3 14be 2021 b6bc 37a5 e4bd 70d0 283e
00000090: 7448 aabd 3b4e 94bd b993 9c3d 28f6 593d
000000a0: 29f7 51bc 5d3b d43d 6010 373d 7a39 b8bd
000000b0: 5910 ffbd 550f c53d 3419 153e 83e0 79bd
000000c0: 9419 923d b7fa c5bc 9e39 4cbd 5f68 7d3c
000000d0: 7100 d23d cf88 19bd dfeb a93d d618 73bd
000000e0: 8dc4 24ba bdd9 20be 5be5 48bd e856 533d
000000f0: 5cdb 16be 8650 4c3d ebd5 b53d a936 00bd
00000100: 619f a1bd edd1 ab3d 24e5 8ebc 78bc f73d
00000110: 82ad ca3a 95c3 913d c2c9 88bd a01d c9bd
00000120: e7db 37be eb09 e43d e4cf bf3c 96d3 033e
00000130: c28b adbd 84d0 133c ee08 e53d e9a6 053d
00000140: 11f1 d63c 33bb a83d c53a 4cbd 891d 56bd
00000150: 08c6 5bbd c238 6b3e 9a0c 98bd f6db 40bd
00000160: 90f2 823d 0f90 fa3d d983 803d fa84 963d
00000170: 376c 243e d66b 2ebe 1e78 b9bd 9b50 d53d
00000180: 0ead dc3b bcc9 3ebd ceac 0f3e 4972 243d
00000190: cd78 73bd 3a4e 70bd a2c3 873d 3ff1 023d
000001a0: 993d ed3d 22e6 99bd 5781 acbd 00c8 c4bb
000001b0: 4da0 143b 5ddd 72bc a8b0 b83c 67f7 02bd
000001c0: d123 28bd 80a1 513d 26cb 29bd c33e c2bd
000001d0: 8534 2f3d 37bb 3c3e 9ac8 6c3d 5804 083d
000001e0: 8194 02be 05d9 a7bd 0dda 45bd c0ef cd3c
000001f0: d064 363e de89 c5bc 0cf5 dd3d 4d12 ebbd
00000200: 9fb2 7abd 8628 10bd b800 ec3c 23d8 3fbd
00000210: 46be 1ebe 4733 a4bd e8f8 49be f110 e93d
00000220: 2428 16bc adab b13d 12c7 66bd bb6a 9e3d
00000230: 9bef a63d 77af 7abd 1e6d 233e 7ab6 d9bc
00000240: bb42 813d 8ca7 a03d 6927 e0bc cc54 313d
00000250: af76 1cbd d49c d8bd 8023 14bc b2b4 0f3e
00000260: 5903 93bd a834 64bb edbe 0c3d 4a2c 9a3c
00000270: 907e a0bb 93c8 3c3d 1462 d63c 8198 7a3c
00000280: 2436 1dbd 6f5c 2ebe 9245 8a3d 4af4 ebbc
00000290: d4c9 cb3d b3e4 c7bc aa44 1ebd 909e 123d
000002a0: 7a3a 023c 2e03 02be 849a 17bd a65f fd3d
000002b0: 7ed5 243e 3cb8 b33d b4ab 75bc 0b18 33be
000002c0: 8abf 86bb 105d babd cd57 123d 01d3 603d
000002d0: 038c bebd 7a00 0fbe c289 ffbd d488 a2bd
000002e0: d805 37bd b48a 3bbe 519f ea3d 4412 5e3c
000002f0: ad26 65bd c6b9 ae3c 1d3d 9fbb 9484 fc3d
00000300: 08a9 dfbd f188 34be 9892 3d3d 80ca e1bb
00000310: 2991 ad3a 53e8 61bd 2f9d 3b3d 9f6c 3a3e
00000320: e9d9 593d 17e8 c8bd ddf2 a3bd dedd 4b3c
00000330: 50f7 803b 5e2e a33d 56f1 50be dea1 04be
00000340: 9a8d fc3c f5ce 94bb 0d5a 98bd e639 103e
00000350: 9ff1 3f3e 699c 8c3c af58 a43d 45b5 24be
00000360: 3529 86bd d6ba 1ebe 6630 3e3e 211d eebc
00000370: 8b76 153e 7664 003e cb52 a2bd 623f 2d3d
00000380: 4d2d 913d b398 67bc c89c 993d b3e3 cabd
00000390: 4804 47be 3953 ab3d 5477 fabc 5b7b a6be
000003a0: bbc1 d8bc 5f0d 503d 92d5 95bd 4ec4 2a3d
000003b0: 24a0 77bd 22b5 e83d afa2 39bd b853 e03d
000003c0: b1fa 603d 6a4c 6bbd d768 80bd 323e 5c3e
000003d0: 226e 6c3d d9fe dd3c 662f 9bbd d9bf e8bd
000003e0: 991b bdbc fbfd f0bc 186e 143e 5abb 893c
000003f0: 1f36 473c 360e 83bd f5e6 2b3e 1eba 81bd
0.06883248 0.09517802 -0.16436028 -0.00029097678 0.015951086 0.008118687 0.006243141 -0.10538912
-0.027355835 -0.3715503 -0.14654315 0.12421655 -0.11181331 0.0045537553 -0.04750114 -0.10975276
-0.008555415 -0.030468723 -0.09956075 0.02602121 -0.06574082 0.18071848 -0.016002305 -0.0633195
0.038148202 -0.0040748594 -0.108830996 0.02442192 0.09091045 0.0076013277 0.1139216 -0.12351607
-0.14539784 -0.022232592 -0.11164325 0.16485763 -0.083146006 -0.07241484 0.07645363 0.05321327
-0.012815275 0.10362885 0.04469335 -0.08995338 -0.1245429 0.09622065 0.14560395 -0.061005127
0.07133785 -0.024167402 -0.049859636 0.015466779 0.102539904 -0.037483986 0.08296942 -0.059349857
-0.0006285392 -0.1570806 -0.049046855 0.051596552 -0.14732116 0.04988148 0.08878692 -0.031302128
-0.07891727 0.083896495 -0.017443247 0.120964944 0.0015463086 0.071173824 -0.06679107 -0.09820104
-0.1795498 0.11134704 0.02341456 0.12873682 -0.08473922 0.009021882 0.11183344 0.03262988
0.026237996 0.082388304 -0.049860734 -0.05227426 -0.053655654 0.2297087 -0.074242786 -0.04708477
0.063939214 0.12234508 0.06275148 0.07349582 0.16056906 -0.17033324 -0.09056114 0.10415765
0.006734497 -0.046579108 0.14030764 0.040148053 -0.059441376 -0.058668353 0.06629111 0.03196835
0.115840144 -0.075145975 -0.08423107 -0.006005287 0.0022678555 -0.014823285 0.022545174 -0.031974223
-0.041049782 0.05117941 -0.041453503 -0.09484627 0.042774696 0.18430792 0.057808496 0.033207268
-0.12751962 -0.0819569 -0.048303653 0.025138736 0.17811894 -0.024113592 0.108377546 -0.114781
-0.061205503 -0.035194896 0.028808936 -0.046836983 -0.15502271 -0.08017593 -0.19723856 0.113801844
-0.009164844 0.08675323 -0.056342192 0.07735201 0.0815117 -0.061202493 0.15959594 -0.02657627
0.06311556 0.07844457 -0.027362542 0.04329376 -0.038199123 -0.105767876 -0.009041667 0.14033774
-0.07178373 -0.0034821425 0.03436177 0.018819947 -0.0048979 0.04608972 0.026169814 0.015295149
-0.03838171 -0.17027448 0.06751551 -0.02880301 0.09950605 -0.024401044 -0.038639702 0.03579575
0.007948512 -0.12696525 -0.037012592 0.12371759 0.16097066 0.08775374 -0.0149945505 -0.1748964
-0.0041121887 -0.090997815 0.035728265 0.05488873 -0.09304049 -0.13965026 -0.12477447 -0.07936254
-0.044683307 -0.1831463 0.114561684 0.01355416 -0.055945087 0.021328818 -0.00485958 0.12329975
-0.10920912 -0.17630364 0.04628238 -0.006890595 0.0013242114 -0.055153202 0.0458042 0.18205498
0.05318633 -0.098098926 -0.08005307 0.012443034 0.003935732 0.07967828 -0.20404562 -0.12952372
0.03082924 -0.0045412728 -0.07439051 0.14084587 0.18744515 0.017164426 0.080247276 -0.16084774
-0.06550828 -0.1550096 0.1857315 -0.029066624 0.14596002 0.12538323 -0.07925948 0.042296775
0.070887186 -0.014135527 0.07500607 -0.099067114 -0.19435227 0.08365483 -0.030574478 -0.32515988
-0.026459565 0.050794 -0.07316126 0.041691117 -0.060455456 0.11362673 -0.045321163 0.10953468
0.054926578 -0.05744592 -0.062699966 0.215081 0.05772222 0.02709906 -0.075774 -0.11364717
-0.023084449 -0.029417982 0.14495122 0.016812969 0.0121589 -0.06399195 0.16787322 -0.06334327

fc1.bias f4 [128]
00000000: 9683 b43b e2fa 98bc 9238 163d fd6c 58bd
00000010: e19d 393b ed02 fe3c 704c 553c add6 3c3d
00000020: 6f7d a0bc 470c e6bc 38cb 693d 3b04 3d3d
00000030: b314 fdbc d0f1 2ab8 f682 03ae 4df3 52bb
00000040: b722 473d 77a3 1f3d 3b73 313d 5df9 2c3c
00000050: fbaf 5fbb 0672 a7bc d21f b437 9b51 60bc
00000060: c41d 513d 154f 443c 5710 413d 1d0a e3bc
00000070: 683e b93c d4fc fdbb 01c1 e23b 4bd8 a8bc
00000080: 4708 2b3d 1496 f73c e749 dc3c ad6a 0835
00000090: 0463 b63b 6b1c 153d 4691 17b9 4dd0 86ba
000000a0: 6c5c 46bb 02c2 05b9 6671 8b3c 685d aebb
000000b0: 9443 4e3d 19c0 4dba c7e5 9b3c c05b a13c
000000c0: 4e9f 833d be18 af3c ae3b 863d 1a60 f73c
000000d0: d65d 023d 4bd2 3ebc d10e 223d 84c8 ff3c
000000e0: 4018 12bd afb3 113c 633e 34bc a009 a73d
000000f0: 448e 143c 7a3b 8c3c 4e7f 093c fe4c 4abb
00000100: eeb1 393d ad37 b43c a927 ad3c a874 0b38
00000110: 7be6 85bb b3e5 a7bc 586e f03c 71e1 c43c
00000120: f595 af3c e4ad 173c 5b27 9abc eebd 2b3d
00000130: 0dee 1e3d 7caf 153d 1d7b a33c 2729 edb9
00000140: 55b0 e03c 711e 5b3d ec6c beba 5a76 16bc
00000150: 5de2 d43c 4447 6d3c c4fd a23c 7a71 32bc
00000160: 07de 043d eec5 893d 77e8 623d 1001 583d
00000170: 3466 c3b8 1342 5c3d 0e24 723d ca83 1927
00000180: 0640 c8b9 58c9 633d 04da a7b3 3ead 663d
00000190: b63d 083d 731c ed3c c8ff 4ebc 16d9 b83c
000001a0: b5e5 7d3c c14a 1b3d f935 633c 2ea1 033d
000001b0: 1a0e 863c 3c45 8dba 053e 5b3d 5cff 37b2
000001c0: 03fa b63c 70a8 f33c 6dbb d7ba bfbc 363d
000001d0: 966e db3b 5050 dd3c 6009 5d3b bd2d 183d
000001e0: 9a1e ad39 4ab2 dc3b a369 5530 835a 9ebb
000001f0: 3c13 a43c 9201 703d 2c4d 93b6 4de0 3f3d
0.0055088503 -0.018674318 0.036675043 -0.052838314 0.0028322863 0.031007254 0.013018712 0.04610317
-0.019591061 -0.028082026 0.05707857 0.046146613 -0.03089366 -4.0756364e-05 -2.9902268e-11 -0.0032188476
0.04861709 0.03897425 0.043322783 0.0105575 -0.0034131992 -0.020440113 2.147249e-05 -0.013691331
0.051053777 0.011981745 0.047134724 -0.027714783 0.022612765 -0.0077510867 0.0069199805 -0.020610949
0.04175594 0.03022293 0.026890708 5.081918e-07 0.005566003 0.036404055 -0.00014454601 -0.0010285467
-0.003026749 -0.00012756142 0.017021846 -0.0053211935 0.050357416 -0.0007848754 0.019030465 0.01969707
0.06426869 0.021374103 0.06554352 0.030197192 0.03182777 -0.011646817 0.03956491 0.031223543
-0.035667658 0.008892938 -0.011001202 0.08156133 0.009067122 0.017118204 0.008392168 -0.0030868645
0.045335703 0.021999205 0.021137075 3.3248827e-05 -0.0040863133 -0.020495271 0.029349491 0.02403328
0.02143381 0.009257767 -0.018817594 0.041929178 0.03880124 0.036544308 0.019956166 -0.00045234823
0.027427832 0.053495828 -0.0014528311 -0.009183491 0.025986845 0.014482323 0.019896396 -0.010891313
0.032438304 0.06727205 0.055397477 0.05273539 -9.3173614e-05 0.05377395 0.059116416 2.1304458e-15
-0.00038194674 0.05561194 -7.8162e-08 0.05631756 0.033261977 0.02894423 -0.012634225 0.022564452
0.015496661 0.037913088 0.013867849 0.032136135 0.016364146 -0.001077808 0.053525943 -1.0710064e-08
0.022336012 0.029743403 -0.0016459055 0.044613596 0.0066965325 0.027015835 0.0033727512 0.037152994
0.0003301993 0.006735121 7.763907e-10 -0.004832567 0.020028703 0.058595248 -4.3899254e-06 0.04684477

fc2.weight f4 [7, 128]
00000000: b6ce e73d cac1 e1bc 5251 993e 10eb 073d
00000010: 4950 343e 85d2 8ebd 0ec5 37be ecf4 89be
00000020: 5cb7 d6be 16ef 32bd b888 8dbe 9965 a2bc
00000030: 2c17 34bb 283a a13a 1b8a 0000 a9bb a0be
00000040: a693 1bbf 2880 8c3c 7695 823b 3e26 96be
00000050: 28fe 75be 4dea 963e c047 c33b cf56 84bc
00000060: 1e94 ed3d 45c5 a8be c3ff 173e afe0 1d3d
00000070: b025 c9be 8be5 7cbc 1fa3 bcbe cf14 9d3b
00000080: c275 48be a49b de3d b830 bdbe c8a6 1633
00000090: aca1 15be 33c5 2b3d d5dd 5c3c d208 4580
000000a0: 22f2 3cbe 7d05 40b2 348c 38be ec72 6b3e
000000b0: 1e7c 6f3d 3f5b 29ba b26c ddbb fb84 efbd
000000c0: a01f b2be 90f4 06be 6ce0 233e cf94 9dbe
000000d0: 30c1 8cbe e3e3 3fbd e6bb 40be f354 143e
000000e0: 83eb 903e 4589 4f3e cf7c 593e 7146 7cbe
000000f0: 9dfd 92be 1080 2b3e 094e 1dbe 828c cb3a
00000100: b6bd da3d 26fd 233e 40bc 6e3d e4f3 5a37
00000110: ef8d 0000 3b87 98be 9515 40be e9da 3bbd
00000120: eb4f 8ebd 0f44 dfbc 7b23 71bc a993 7cbd
00000130: 18bb 31bd e08a 82be d069 e7be 76da f131
00000140: 285f 793e b540 c6be 9b9c 7a2a 660e 0d35
00000150: 5b6d 0e3e 64a1 6c3e f452 a5bd 0096 7f3e
00000160: 65d0 01be 69c7 b2bd b345 7bbe 13a1 adbd
00000170: b8e3 5ab4 730b bf3e 0e19 a6bd 4bef fba9
00000180: b38e b730 c0e8 6cbe 2e98 68af 7b6e 8dbd
00000190: 23da 93be 1415 0b3d 388f 82bd 5bd9 0c3e
000001a0: ee21 4b3d 3252 0ebe 0fa2 e03d 6c08 bc3e
000001b0: 389b d73d 8638 1c3e 3294 dbbe 29f1 0eaa
000001c0: ca0b 65be 24f0 9dbe 4b78 173b 9a00 cb3e
000001d0: 6849 eebe 8228 a0bd 755d 02bf 7b46 edbc
000001e0: df9d aa3e d36d 9cbe ea40 912a 4cd8 6231
000001f0: 7e2a c6be 27a1 83be 57da 68b0 45d5 a7be
00000200: f764 0f3e 3b0b 8abc 2794 52be 50fd 95bc
00000210: 4a95 5b3e 5f41 9fbe 4e5a 643e 09f7 f0bd
00000220: d9b0 613e bc3c 9ebb c87e 093e 87b6 cebd
00000230: c8f7 05bc 2e84 e9b9 bd88 0000 4226 c5bc
00000240: 039f b1be 3c57 53be 9b0f b23d c878 adbe
00000250: fe50 79bd 7225 323e 03f5 d43b 27f4 a5bc
00000260: 3cf1 90be 973e 393e 6b3f fbba afae cbbb
00000270: 4fd8 b43d 2550 c0bb 15df 363e 725c be3a
00000280: 7376 c5be 7e55 253c a023 7ebe c1d9 b5b1
00000290: d277 083c 1e2c 1abe 80d8 a0bb 882e 0000
000002a0: 5ea6 533e b383 4cb0 f21d 25be d415 0dbe
000002b0: d17c 533e 1ce3 213c 80a7 863e 0037 b6be
000002c0: da11 22be bdee b6be b95b ff3d eada 8cbe
000002d0: cc89 cbbe e0f7 a4bc 49a3 50be 7d62 a2be
000002e0: b2c9 b6bd c5ad 8d3e 5e99 1f3d d3b5 983d
000002f0: 30e2 81be 69bc 913c 05ed 163d db3d 0bba
00000300: f384 9abe b24d 303e a0c8 3d3e 5e1c a6b6
00000310: 569d 0080 3db6 843b 5c81 103e 1cda d8bc
00000320: 38e1 fbbd b9d8 353d 7951 d4bc 6c95 86be
00000330: 5ac0 4a3e 49c2 babe 3fea c9be bc71 622c
00000340: 1a39 ae3d 7598 80be d095 35a8 58ea beb7
00000350: 8ba5 16bd f69b 1abe 3ed8 193e a0a4 76be
00000360: ec5a 93be bb2b 8dbe 1ef3 fcbe 9eb1 09bf
00000370: d8ee 64b0 32f6 1ebe d36c 0bbe 1370 8928
00000380: 3f1c 872e 2167 71be 7998 4530 ef83 503e
00000390: 8654 fd3d de46 4f3e 0d99 ca3d 6013 843d
000003a0: d9fa 013e 96f7 a1be fcbe 843c 1425 8abe
000003b0: 7a9f 563e e70e 163d 9721 92be a9a5 9e27
000003c0: b7e1 d7bd 8aa0 123d 4997 f8b7 f37b 96be
000003d0: fe50 27bd 96b2 ddbe fab2 6ebe 16a7 b1be
000003e0: f5c0 8cbe 5a47 dfbe 6564 c629 c8ae 02b2
000003f0: f84e 8a3e ee87 88be 024c 79ae dbd9 5dbe
0.11318724 -0.027558226 0.29944855 0.033183157 0.17608751 -0.06973747 -0.17946264 -0.26944673
-0.41936767 -0.04368504 -0.2764337 -0.019823836 -0.0027479632 0.0012300657 4.9543e-41 -0.31393173
-0.6077217 0.017150953 0.0039851023 -0.2932605 -0.24022734 0.29475632 0.005959481 -0.016154675
0.11600517 -0.32963005 0.14843659 0.038544353 -0.39286566 -0.015435587 -0.36843202 0.0047937403
-0.19576171 0.1086953 -0.36951232 3.5076283e-08 -0.14612454 0.04193611 0.013480623 -6.339813e-39
-0.18451741 -1.1177119e-08 -0.18022233 0.22993058 0.058467977 -0.0006460435 -0.0067573423 -0.11695286
-0.34789753 -0.1317923 0.16003579 -0.30777594 -0.2749114 -0.04684819 -0.18821678 0.1448553
0.2830468 0.20267208 0.21239017 -0.24636246 -0.28709117 0.1674807 -0.153618 0.0015529545
0.10680716 0.16014537 0.058284998 1.3050598e-05 5.0916e-41 -0.29790673 -0.18758233 -0.045863066
-0.06948837 -0.027254133 -0.014717932 -0.061664257 -0.043391317 -0.25496578 -0.45197916 7.0388593e-09
0.24352705 -0.38721243 2.2258794e-13 5.2547546e-07 0.13908903 0.2310844 -0.08072463 0.24959564
-0.12677152 -0.08729441 -0.24538307 -0.08477988 -2.0385676e-07 0.37313423 -0.081102476 -1.118815e-13
1.335556e-09 -0.23135662 -2.1154342e-10 -0.06905838 -0.28877363 0.03395565 -0.06374973 0.1375479
0.049592905 -0.13898543 0.1096841 0.36725175 0.105276525 0.15255937 -0.42886502 -1.2695803e-13
-0.22367778 -0.30847275 0.0023112472 0.39648896 -0.4654038 -0.07820226 -0.50923854 -0.028964272
0.3332357 -0.3055254 2.5802217e-13 3.301028e-09 -0.38704294 -0.25708887 -8.471139e-10 -0.327799
0.14003359 -0.016851058 -0.20564328 -0.018309265 0.21443668 -0.31104562 0.22300074 -0.11765868
0.22040118 -0.0048290174 0.1342727 -0.10093408 -0.008176751 -0.00044539705 4.9052e-41 -0.024066094
-0.3469163 -0.20638746 0.08694383 -0.3388121 -0.060868256 0.17397097 0.0064989342 -0.020258022
-0.28309047 0.18090282 -0.001916868 -0.0062158923 0.0883032 -0.005868929 0.17858537 0.00145234
-0.38566932 0.010091184 -0.24818277 -5.292549e-09 0.008329349 -0.15055892 -0.0049086213 1.6692e-41
0.20668933 -7.4401924e-10 -0.16124704 -0.13777858 0.20653082 0.009880807 0.26299667 -0.35588837
-0.15827122 -0.35729018 0.124686666 -0.27510768 -0.39753568 -0.020137727 -0.20374788 -0.31715766
-0.08925189 0.27671638 0.03896462 0.07456555 -0.2536788 0.017790036 0.036847133 -0.00053116464
-0.30179557 0.17217138 0.18533564 -4.950488e-06 -5.6441e-41 0.004050045 0.14111847 -0.02647119
-0.122988164 0.044396136 -0.025917755 -0.26285875 0.19799939 -0.36476353 -0.39436528 3.2179667e-12
0.08506985 -0.25116315 -1.0080004e-14 -2.275889e-05 -0.036778968 -0.15098557 0.15023896 -0.24086237
-0.28780305 -0.27572426 -0.49404234 -0.5378665 -8.3285334e-10 -0.15523604 -0.13615732 1.525866e-14
6.144107e-11 -0.23574497 7.188486e-10 0.20362829 0.12369637 0.20241877 0.09892473 0.06449008
0.12693347 -0.31634206 0.01620435 -0.26981413 0.20959273 0.036635306 -0.28541252 4.403342e-15
-0.105410986 0.035797633 -2.9634351e-05 -0.2939144 -0.040848725 -0.43300313 -0.23310462 -0.3469779
-0.27490965 -0.43609124 8.810382e-14 -7.606737e-09 0.27013373 -0.26666206 -5.6683554e-11 -0.21665137

fc2.bias f4 [7]
00000000: 090c f23c 8c67 4c3c fbc8 093d 609c 0d3e
00000010: 7518 573d 2e9e 913d 1707 2a3e
0.029546754 0.012475859 0.033638936 0.13829184 0.05251356 0.071102485 0.16604267
